app/src/main/ml/model1.tflite (tflite, 34928 bytes, 6 tensors)

sequential/lstm/Read_2/ReadVariableOp f4 [128]
-0.03207051 0.016469307 0.029996006 -0.058096305 0.019929638 0.03550741 0.04272247 0.028695052
-0.039827712 0.016988998 -0.009140302 -0.0018373546 -0.025959112 0.045082513 0.02501675 0.026925456
0.06869668 0.07966066 -0.08259864 0.027397303 -0.03891722 -0.0378281 0.039913464 0.007296785
0.06920939 0.06886918 -0.01895617 0.0019979142 0.0546069 -0.051929947 -0.027875118 -0.009302933
0.98733073 1.026363 1.0657054 0.95208496 1.0210298 1.0443207 1.0643253 1.0300361
0.9885762 1.0219643 1.010629 1.0089012 0.9968329 1.0544565 1.0378112 1.0185679
1.0692053 1.0701059 0.9327698 1.0321397 0.9790277 0.9744839 1.1066328 1.0343859
1.0137811 1.0848298 1.0181798 1.0098546 1.0736635 0.9873829 1.0550822 0.99578154
0.009530002 0.03647055 -0.037867785 0.006825149 -0.0112987785 -0.026425747 0.010794558 -0.001028535
0.032998323 -0.02817516 0.01831259 0.026683576 0.0012700157 -0.0055870665 -0.017682819 -0.02434267
0.008000765 -0.030964782 -0.0048915497 0.013815031 -0.005706579 -0.004034828 0.011170761 -0.013485791
0.030565053 0.006743948 -0.008454825 -0.0024134254 0.009051953 0.010935421 -0.002656118 0.003913778
-0.0016735524 0.031164333 0.095902994 -0.04952367 0.02759641 0.006541688 0.01566059 0.03225721
-0.020014929 -0.0047295303 0.02146171 -0.0048951856 -0.0069425283 0.016100151 0.022042453 -0.013943875
0.045503635 0.14189227 0.036964163 -0.0073613543 0.060998905 -0.019346977 0.098193265 0.010164151
0.13065065 0.07580979 0.056600712 -0.018533641 0.016473437 0.031938076 0.0033202386 0.039577026
00000000: 5e5c 03bd a4ea 863c 2fba f53c 64f6 6dbd
00000010: 7b43 a33c 3870 113d c2fd 2e3d e311 eb3c
00000020: 6222 23bd 832c 8b3c 35c1 15bc 64d3 f0ba
00000030: 34a8 d4bc 71a8 383d edef cc3c c692 dc3c
00000040: d8b0 8c3d 2125 a33d 7a29 a9bd 4f70 e03c
00000050: aa67 1fbd a3f1 1abd 4d7c 233d de19 ef3b
00000060: a7bd 8d3d 490b 8d3d f849 9bbc 70ef 023b
00000070: 7cab 5f3d 7fb4 54bd 5c5a e4bc 546b 18bc
00000080: b5c1 7c3f dd5f 833f 0969 883f d7bb 733f
00000090: 1bb1 823f 4dac 853f d03b 883f 39d8 833f
000000a0: 5413 7d3f bacf 823f 4b5c 813f ad23 813f
000000b0: 7130 7f3f 6ef8 863f ffd6 843f 6f60 823f
000000c0: b8db 883f 3bf9 883f 00ca 6e3f 271d 843f
000000d0: 8fa1 7a3f c777 793f 25a6 8d3f c266 843f
000000e0: 94c3 813f b4db 8a3f b753 823f ea42 813f
000000f0: ce6d 893f 20c5 7c3f ef0c 873f 8aeb 7e3f
00000100: ba23 1c3c 2562 153d 401b 1bbd 80a5 df3b
00000110: 831e 39bc cf7a d8bc a8db 303c e8cf 86ba
00000120: 4029 073d 98cf e6bc 4904 963c 8497 da3c
00000130: a876 a63a b613 b7bb 8fdb 90bc 476a c7bc
00000140: a415 033c dba9 fdbc 4b49 a0bb 7158 623c
00000150: 41fe babb 9736 84bb 9105 373c 82f3 5cbc
00000160: 9063 fa3c 56fc dc3b 1b86 0abc 8f2a 1ebb
00000170: a54e 143c 7b2a 333c 4412 2ebb 263f 803b
00000180: 1a5b dbba 584c ff3c ca68 c43d 55d9 4abd
00000190: de11 e23c a85b d63b a34a 803c 2320 043d
000001a0: 59f6 a3bc 2dfa 9abb 78d0 af3c cb67 a0bb
000001b0: 267e e3bb 77e4 833c 6092 b43c da74 64bc
000001c0: 0562 3a3d 354c 113e bc67 173d 8437 f1bb
000001d0: fdd9 793d 8d7d 9ebc 8d19 c93d 8a87 263c
000001e0: 49c9 053e 2a42 9b3d 26d6 673d ddd3 97bc
000001f0: 4df3 863c 80d1 023d 5c98 593b 851b 223d

sequential/dense/BiasAdd/ReadVariableOp f4 [3]
0.010691271 -0.018404555 0.0068561533
00000000: 712a 2f3c 26c5 96bc 95a9 e03b

sequential/dense/MatMul f4 [3, 32]
-0.20359816 -0.31543842 -0.35915458 -0.25084856 -0.109735094 0.30645198 -0.0720857 -0.11384308
0.23198335 0.13593453 0.2001589 0.14767502 0.34370884 0.15672407 0.038511913 -0.17165072
-0.1998992 0.44604626 -0.29260984 0.049739443 0.5402405 0.09265359 0.3568957 0.19619964
0.13025266 0.30128694 -0.32572323 -0.27954364 -0.08669854 -0.073450945 0.26434293 -0.28020623
-0.40594763 0.06578317 0.28780702 0.34807676 -0.26677185 -0.28817683 -0.350935 0.05978343
-0.3276133 0.14441307 -0.32876316 0.14160262 -0.15902157 -0.18164976 0.01692369 0.39999014
-0.44746226 -0.022385122 0.20428534 -0.036325395 0.17275688 0.19316438 -0.39388743 0.25961992
-0.3253686 0.11190419 0.27954626 -0.14441949 -0.44725695 -0.3078192 0.41741642 -0.27158466
0.1999563 0.175379 -0.19429874 -0.02848197 -0.41749692 -0.2812843 0.14898463 -0.25634208
-0.0021551019 -0.12443124 0.27086073 0.27621198 0.44554782 -0.3206328 -0.31586468 0.13717589
0.45052922 0.418853 0.05744719 0.34756786 -0.28918356 -0.33827615 -0.21098886 -0.22401184
-0.2554757 -0.22688891 0.16966662 0.08898712 0.36931202 -0.45143178 -0.21291976 -0.28720698
00000000: 097c 50be 2581 a1be 1ce3 b7be 396f 80be
00000010: cbbc e0bd 46e7 9c3e aba1 93bd 9026 e9bd
00000020: 0b8d 6d3e 6c32 0b3e 74f6 4c3e 1f38 173e
00000030: 9bfa af3e 467c 203e abbe 1d3d 35c5 2fbe
00000040: 60b2 4cbe 2d60 e43e f5d0 95be 96bb 4b3d
00000050: 344d 0a3f 2ac1 bd3d 08bb b63e 8fe8 483e
00000060: f460 053e 4842 9a3e 32c5 a6be 5820 8fbe
00000070: 018f b1bd 736d 96bd f557 873e 3177 8fbe
00000080: 5ed8 cfbe 54b9 863d 715b 933e 1e37 b23e
00000090: 5296 88be ea8b 93be c1ad b3be 78df 743d
000000a0: eebc a7be 05e1 133e a553 a8be 4700 113e
000000b0: 8dd6 22be 6502 3abe 8da3 8a3c 82cb cc3e
000000c0: c619 e5be 0161 b7bc 2d30 513e f0c9 14bd
000000d0: 2ee7 303e e2cc 453e 9dab c9be e7ec 843e
000000e0: b796 a6be 062e e53d b020 8f3e b4e2 13be
000000f0: ddfe e4be 7a9a 9dbe 9bb7 d53e 250d 8bbe
00000100: 58c1 4c3e 8d96 333e 40f6 46be 0553 e9bc
00000110: 28c2 d5be 7f04 90be 6d8f 183e 453f 83be
00000120: 9c3c 0dbb ced5 febd 42ae 8a3e a86b 8d3e
00000130: d81e e43e fb29 a4be 04b9 a1be d677 0c3e
00000140: c4ab e63e e773 d63e bf4d 6b3d 6af4 b13e
00000150: de0f 94be 8832 adbe 770d 58be 5c63 65be
00000160: b6cd 82be 9155 68be 16bd 2d3e e13e b63d
00000170: 7716 bd3e 1122 e7be a307 5abe cb0c 93be

sequential/lstm/Read_2/ReadVariableOp1 f4 [128]
-0.03207051 0.016469307 0.029996006 -0.058096305 0.019929638 0.03550741 0.04272247 0.028695052
-0.039827712 0.016988998 -0.009140302 -0.0018373546 -0.025959112 0.045082513 0.02501675 0.026925456
0.06869668 0.07966066 -0.08259864 0.027397303 -0.03891722 -0.0378281 0.039913464 0.007296785
0.06920939 0.06886918 -0.01895617 0.0019979142 0.0546069 -0.051929947 -0.027875118 -0.009302933
0.98733073 1.026363 1.0657054 0.95208496 1.0210298 1.0443207 1.0643253 1.0300361
0.9885762 1.0219643 1.010629 1.0089012 0.9968329 1.0544565 1.0378112 1.0185679
1.0692053 1.0701059 0.9327698 1.0321397 0.9790277 0.9744839 1.1066328 1.0343859
1.0137811 1.0848298 1.0181798 1.0098546 1.0736635 0.9873829 1.0550822 0.99578154
0.009530002 0.03647055 -0.037867785 0.006825149 -0.0112987785 -0.026425747 0.010794558 -0.001028535
0.032998323 -0.02817516 0.01831259 0.026683576 0.0012700157 -0.0055870665 -0.017682819 -0.02434267
0.008000765 -0.030964782 -0.0048915497 0.013815031 -0.005706579 -0.004034828 0.011170761 -0.013485791
0.030565053 0.006743948 -0.008454825 -0.0024134254 0.009051953 0.010935421 -0.002656118 0.003913778
-0.0016735524 0.031164333 0.095902994 -0.04952367 0.02759641 0.006541688 0.01566059 0.03225721
-0.020014929 -0.0047295303 0.02146171 -0.0048951856 -0.0069425283 0.016100151 0.022042453 -0.013943875
0.045503635 0.14189227 0.036964163 -0.0073613543 0.060998905 -0.019346977 0.098193265 0.010164151
0.13065065 0.07580979 0.056600712 -0.018533641 0.016473437 0.031938076 0.0033202386 0.039577026
00000000: 5e5c 03bd a4ea 863c 2fba f53c 64f6 6dbd
00000010: 7b43 a33c 3870 113d c2fd 2e3d e311 eb3c
00000020: 6222 23bd 832c 8b3c 35c1 15bc 64d3 f0ba
00000030: 34a8 d4bc 71a8 383d edef cc3c c692 dc3c
00000040: d8b0 8c3d 2125 a33d 7a29 a9bd 4f70 e03c
00000050: aa67 1fbd a3f1 1abd 4d7c 233d de19 ef3b
00000060: a7bd 8d3d 490b 8d3d f849 9bbc 70ef 023b
00000070: 7cab 5f3d 7fb4 54bd 5c5a e4bc 546b 18bc
00000080: b5c1 7c3f dd5f 833f 0969 883f d7bb 733f
00000090: 1bb1 823f 4dac 853f d03b 883f 39d8 833f
000000a0: 5413 7d3f bacf 823f 4b5c 813f ad23 813f
000000b0: 7130 7f3f 6ef8 863f ffd6 843f 6f60 823f
000000c0: b8db 883f 3bf9 883f 00ca 6e3f 271d 843f
000000d0: 8fa1 7a3f c777 793f 25a6 8d3f c266 843f
000000e0: 94c3 813f b4db 8a3f b753 823f ea42 813f
000000f0: ce6d 893f 20c5 7c3f ef0c 873f 8aeb 7e3f
00000100: ba23 1c3c 2562 153d 401b 1bbd 80a5 df3b
00000110: 831e 39bc cf7a d8bc a8db 303c e8cf 86ba
00000120: 4029 073d 98cf e6bc 4904 963c 8497 da3c
00000130: a876 a63a b613 b7bb 8fdb 90bc 476a c7bc
00000140: a415 033c dba9 fdbc 4b49 a0bb 7158 623c
00000150: 41fe babb 9736 84bb 9105 373c 82f3 5cbc
00000160: 9063 fa3c 56fc dc3b 1b86 0abc 8f2a 1ebb
00000170: a54e 143c 7b2a 333c 4412 2ebb 263f 803b
00000180: 1a5b dbba 584c ff3c ca68 c43d 55d9 4abd
00000190: de11 e23c a85b d63b a34a 803c 2320 043d
000001a0: 59f6 a3bc 2dfa 9abb 78d0 af3c cb67 a0bb
000001b0: 267e e3bb 77e4 833c 6092 b43c da74 64bc
000001c0: 0562 3a3d 354c 113e bc67 173d 8437 f1bb
000001d0: fdd9 793d 8d7d 9ebc 8d19 c93d 8a87 263c
000001e0: 49c9 053e 2a42 9b3d 26d6 673d ddd3 97bc
000001f0: 4df3 863c 80d1 023d 5c98 593b 851b 223d

while/MatMul_11 f4 [128, 32]
-0.02434491 0.23792414 0.07991435 0.027944915 -0.07160244 0.03001304 -0.050244994 0.0042905426
-0.0136159025 0.17712356 0.069665045 -0.12332638 -0.042491674 0.1856957 0.012037276 -0.0130054
0.15818155 -0.024644187 0.08392489 -0.025858412 0.029989256 -0.27604994 -0.18289813 -0.14808692
-0.064837664 -0.1570862 -0.1695122 -0.049671944 -0.028114378 -0.17803697 -0.115034 0.0053687175
0.019664602 -0.050436057 -0.26362374 -0.008397675 0.043892074 0.07477998 0.044218123 -0.1384949
-0.09060283 -0.04393845 -0.21999606 0.16028002 -0.11868491 0.1103567 -0.023712296 0.13151817
-0.06345969 -0.080638185 -0.093283586 0.045430455 0.14832711 0.1013356 0.025988178 -0.16291785
-0.10625107 0.12948167 -0.03590914 0.08194986 -0.13746166 0.08559534 -0.0055740355 0.018829709
0.001526044 -0.17215462 0.006968691 -0.014396377 0.18035957 0.14676341 -0.1124301 0.030459685
0.13966735 0.021239698 -0.13932611 0.10296819 0.11392026 0.019095922 -0.02032074 -0.114269234
-0.097887896 0.032265667 0.057021406 -0.09342244 0.10958879 0.010922736 -0.11270388 -0.049365144
-0.15158582 0.1481095 -0.058137234 0.06263007 -0.032023557 -0.072216794 0.04926384 -0.123233244
-0.033991467 0.08570053 0.001402118 0.10809143 0.12961954 -0.0445792 0.14165048 0.09952037
-0.050758336 0.20416588 0.021254655 -0.10145856 0.04913937 -0.0068227826 -0.07314321 -0.14218363
0.014207619 -0.17207244 -0.03086527 -0.024643062 -0.17428777 0.0369902 -0.07384214 -0.16614395
0.013583463 -0.11068469 0.123961486 -0.14095742 -0.019480156 0.03464342 -0.0014202066 0.018714994
0.06308853 0.109075986 0.020693455 0.072868675 0.021998098 0.040040568 0.06384512 -0.11353122
-0.08455012 0.015778197 0.049300678 0.0034847995 0.08472267 -0.038251493 -0.039189074 0.08357191
0.021805199 -0.16626668 0.056237787 0.066404425 0.15376042 0.060729183 -0.16449106 0.022612395
-0.12679486 0.042612396 0.03040414 -0.024525063 0.15321279 0.019767195 -0.09771209 -0.0210067
0.0993591 -0.042845003 -0.09419733 -0.09542485 -0.09115528 0.061969478 -0.077328295 0.05771592
0.004445839 0.008355264 -0.025461996 -0.08999534 0.032272656 0.17749453 -0.1805593 0.02034625
0.027136473 0.14947122 -0.13124166 0.090143435 -0.0014685891 -0.11016867 0.10064452 -0.0031557656
0.119099505 -0.032335494 0.12492388 0.10828564 -0.10587229 0.20770103 0.09447742 0.07285693
0.11515147 -0.041351244 0.0023855693 0.015584611 -0.15453143 -0.019758148 -0.14493792 -0.17871645
0.07040975 0.048666753 0.03976245 0.04894502 0.030095544 -0.022355013 0.04387727 -0.18952173
0.16570607 -0.3134006 0.044244964 0.07747486 0.007918477 0.11890803 -0.1796847 -0.013781526
-0.08933308 -0.0382482 -0.060560748 -0.054527268 0.0971392 0.12010685 0.024030123 -0.06612395
-0.0018043952 -0.038966842 -0.18290687 0.12124038 0.10616677 0.019722972 -0.033167303 -0.07024608
0.043616608 -0.12702164 -0.11732279 0.06642595 0.058931038 0.03342248 -0.09854253 0.005531474
0.028886253 0.16647613 0.10591688 0.090051115 -0.10630447 0.017540919 -0.15427975 -0.11748494
0.013918468 -0.12692225 0.15808922 0.061312962 0.010418953 0.26784116 -0.12637801 0.00247492
00000000: fa6e c7bc 63a2 733e 22aa a33d bcec e43c
00000010: 4da4 92bd e8dd f53c b2cd 4dbd ae97 8c3b
00000020: 3c15 5fbc e15f 353e 8cac 8e3d 8b92 fcbd
00000030: c00b 2ebd 0327 3e3e ff37 453c 9a14 55bc
00000040: 58fa 213e 9be2 c9bc d0e0 ab3d 05d5 d3bc
00000050: 07ac f53c 6b56 8dbe a649 3bbe 19a4 17be
00000060: 9cc9 84bd 34db 20be 9b94 2dbe cf74 4bbd
00000070: 2050 e6bc 534f 36be f296 ebbd 11ec af3b
00000080: a917 a13c 0a96 4ebd b1f9 86be 6796 09bc
00000090: 2dc8 333d 3f26 993d 101e 353d 9bd1 0dbe
000000a0: fa8d b9bd cef8 33bd a646 61be 7220 243e
000000b0: 1311 f3bd b202 e23d 4a40 c2bc b3ac 063e
000000c0: 27f7 81bd a225 a5bd 770b bfbd 4915 3a3d
000000d0: 10e3 173e 0a89 cf3d 29e5 d43c f0d3 26be
000000e0: 299a d9bd d896 043e 7615 13bd 54d5 a73d
000000f0: c0c2 0cbe 9c4c af3d 66a6 b6bb c340 9a3c
00000100: 8a05 c83a 4d49 30be 9e59 e43b c8de 6bbc
00000110: 2eb0 383e 2649 163e c141 e6bd 9786 f93c
00000120: f504 0f3e e0fe ad3c 81ab 0ebe fde0 d23d
00000130: 064f e93d 0d6f 9c3c ae77 a6bc fd05 eabd
00000140: 7379 c8bd 0129 043d 478f 693d 4454 bfbd
00000150: 1670 e03d 46f5 323c 4bd1 e6bd 1b33 4abd
00000160: 5039 1bbe 04aa 173e 4f21 6ebd 3244 803d
00000170: 222b 03bd 66e6 93bd e1c8 493d b661 fcbd
00000180: a33a 0bbd c283 af3d 46c7 b73a 0a5f dd3d
00000190: fcba 043e ae98 36bd d30c 113e 56d1 cb3d
000001a0: f9e7 4fbd dc10 513e 3e1e ae3c 81c9 cfbd
000001b0: 5d46 493d a691 dfbb 1bcc 95bd 9698 11be
000001c0: 13c7 683c c233 30be 2ad9 fcbc 3fe0 c9bc
000001d0: 7e78 32be 0983 173d 8c3a 97bd a421 2abe
000001e0: 2c8d 5e3c a8ae e2bd 85df fd3d 2457 10be
000001f0: d994 9fbc 42e6 0d3d 3a26 baba 3050 993c
00000200: 8f34 813d 3b63 df3d 5285 a93c 2c3c 953d
00000210: 5b35 b43c 9401 243d 3bc1 823d 0e83 e8bd
00000220: 9d28 adbd 4741 813c 82ef 493d 3c61 643b
00000230: 1483 ad3d 99ad 1cbd b984 20bd c027 ab3d
00000240: d1a0 b23c d041 2abe 9859 663d 0bff 873d
00000250: 5f73 1d3e 2abf 783d 5870 28be a13d b93c
00000260: 83d6 01be 568a 2e3d 1a12 f93c c9e8 c8bc
00000270: d0e3 1c3e d0ee a13c 471d c8bd 3e16 acbc
00000280: c97c cb3d 3e7e 2fbd 88ea c0bd 1b6e c3bd
00000290: 9faf babd b5d3 7d3d 4c5e 9ebd 8767 6c3d
000002a0: 67ae 913b 84e4 083c ad95 d0bc 7a4f b8bd
000002b0: 5530 043d 20c1 353e 8ae4 38be 2ead a63c
000002c0: 4f4d de3c fc0e 193e 3764 06be 1f9d b83d
000002d0: ac7d c0ba 1da0 e1bd b71e ce3d f6d0 4ebb
000002e0: 71ea f33d 3972 04bd 17d8 ff3d ddc4 dd3d
000002f0: 92d3 d8bd 94af 543e 617d c13d 0436 953d
00000300: 89d4 eb3d ec5f 29bd 3657 1c3b 9956 7f3c
00000310: 7d3d 1ebe d7db a1bc 9b6a 14be 7201 37be
00000320: fd32 903d ca56 473d f3dd 223d 937a 483d
00000330: ee8a f63c dc21 b7bc a7b8 333d fc11 42be
00000340: daae 293e 0b76 a0be 353a 353d 24ab 9e3d
00000350: 80bc 013c 0e86 f33d 44ff 37be e9cb 61bc
00000360: 43f4 b6bd 25aa 1cbd 8c0e 78bd fc57 5fbd
00000370: ebf0 c63d 95fa f53d d2da c43c fe6b 87bd
00000380: 7581 ecba b29b 1fbd f04b 3bbe e04c f83d
00000390: f76d d93d 1292 a13c 70da 07bd 2ddd 8fbd
000003a0: 54a7 323d f611 02be ee46 f0bd 540a 883d
000003b0: ac61 713d 03e6 083d aad0 c9bd 5e41 b53b
000003c0: dda2 ec3c b878 2a3e f3ea d83d b86c b83d
000003d0: 28b6 d9bd f9b1 8f3c 83fb 1dbe f29b f0bd
000003e0: 490a 643c e8f7 01be 24e2 213e 4d23 7b3d
000003f0: 42b4 2a3c 7a22 893e 3d69 01be 4432 223b

while/MatMul f4 [128, 15]
0.03578944 -0.1917156 -0.074695855 0.25758043 0.058907866 -0.071926184 0.012266559 0.14000379
0.12675829 0.23530437 -0.17377098 -0.16279781 -0.19437213 -0.14477956 0.07639873 0.046488233
0.10187269 -0.16669683 0.08844818 -0.07953807 0.1956068 0.020761175 0.029006874 0.10152144
-0.1263622 -0.11606862 -0.13273932 -0.24677141 0.1845442 0.017205594 0.14669669 -0.11573779
0.1129252 0.04290903 0.1960264 -0.09829929 -0.058997024 0.18678597 0.024234299 -0.13855395
-0.11709655 0.026470024 0.085257776 0.24838655 0.09398916 0.07455372 0.17027442 0.01354766
0.075345814 0.059964933 0.082228035 0.14657713 -0.028932504 0.23018669 0.08872296 -0.14567488
-0.124568015 0.10270427 0.12228415 0.045183413 -0.17104423 -0.057167288 0.19695967 -0.11433963
0.010622984 0.03769768 0.07445418 -0.016928708 -0.019568548 -0.12322272 -0.13105325 -0.2250299
0.020973459 -0.16553025 0.14030562 0.023626756 0.028962774 -0.054958798 0.13059956 0.12694603
-0.12537971 0.12515014 -0.025518073 -0.025809327 0.1046108 0.12882392 0.05449725 -0.22660376
0.06515769 0.21159887 -0.05207026 0.036884874 -0.07998108 0.007774534 -0.09165302 0.03928337
0.10331887 -0.042045895 -0.11554794 0.032809593 0.005027578 -0.09291942 0.0010814958 0.23280725
0.16669771 0.009704201 0.20440648 0.050056897 0.094579205 0.16881092 -0.11659003 -0.15088539
0.01862814 0.11343274 -0.0569923 0.07837523 -0.004419077 -0.102462515 0.010812964 -0.1643068
-0.07139092 0.23878601 -0.24281508 0.0383835 -0.103230365 -0.046231687 0.19587204 0.24672547
-0.026627848 0.18584415 0.10737874 0.13015752 -0.1485575 0.11977567 0.11805497 -0.010976014
-0.10067964 0.059925795 0.008091423 0.103004396 0.2561278 0.06509341 0.14632557 -0.009620549
0.113586344 0.023765013 0.08793158 0.12559891 -0.13391918 0.0688722 0.15402715 0.19799052
-0.05589727 0.08730546 0.038877968 -0.10723849 0.21155989 -0.018306242 -0.17773634 -0.0764161
-0.12212174 0.059209295 0.15963241 -0.15429115 -0.17362016 -0.21286273 0.10718316 0.093187444
0.102206215 0.19254741 0.16711602 0.25783217 -0.09349551 -0.068635546 0.18136719 0.102162555
-0.16045564 -0.12611428 0.032792453 -0.050167583 0.011129666 0.18867196 -0.18562059 0.013859221
-0.26493263 0.007004983 -0.15617359 0.099545166 -0.08760726 0.03316993 -0.17776753 0.20539841
-0.104667775 0.022226257 0.1862085 -0.1181906 0.04374639 0.07546182 -0.05514333 0.02982823
0.098197766 0.06535362 0.14026563 0.05094064 -0.17256403 0.15007325 -0.045924027 0.041761313
-0.016564716 0.21893562 0.13799946 0.015417014 -0.17167293 0.17104599 -0.07449562 0.0073560164
0.17709151 -0.14384358 0.055929378 0.1638498 0.052601557 -0.02356187 -0.21592051 0.2300741
-0.05605438 0.014503961 0.138679 0.06965014 -0.016960695 -0.10324193 0.09607707 -0.104658
0.016951729 -0.04991747 -0.19013837 0.03181731 -0.17858003 0.10603487 0.11197476 0.060802404
0.06814062 -0.033699054 0.19755626 0.012792193 0.17306142 0.14701615 -0.020036899 0.22857514
-0.01179758 -0.09928616 -0.13692996 -0.029916298 -0.10160705 -0.04966372 0.016793936 0.13891804
00000000: f397 123d 1851 44be 24fa 98bd 95e1 833e
00000010: 6049 713d 094e 93bd adf9 483c 275d 0f3e
00000020: edcc 013e a1f3 703e 05f1 31be 78b4 26be
00000030: 7d09 47be 1841 14be f076 9c3d 726a 3e3d
00000040: a1a2 d03d 93b2 2abe 5224 b53d dbe4 a2bd
00000050: 264d 483e 5713 aa3c d39f ed3c 79ea cf3d
00000060: 1865 01be 62b5 edbd d1ec 07be a5b1 7cbe
00000070: 28f9 3c3e bff2 8c3c a837 163e ef07 edbd
00000080: 5445 e73d 61c1 2f3d 25bb 483e 2351 c9bd
00000090: dda6 71bd d244 3f3e 0287 c63c 16e1 0dbe
000000a0: 51d0 efbd aad7 d83c a19b ae3d 0b59 7e3e
000000b0: 647d c03d 9faf 983d 6b5c 2e3e 01f7 5d3c
000000c0: e84e 9a3d ca9d 753d 2c67 a83d 5118 163e
000000d0: dc03 edbc 0fb6 6b3e 62b4 b53d cc2b 15be
000000e0: 841d ffbd 9e56 d23d 1d70 fa3d 3e12 393d
000000f0: 3826 2fbe 3f28 6abd ccaf 493e e52a eabd
00000100: 060c 2e3c e268 1a3d 6f7b 983d 13ae 8abc
00000110: 384e a0bc 325c fcbd d332 06be 3d6e 66be
00000120: 88d0 ab3c c380 29be 47ac 0f3e e68c c13c
00000130: 5743 ed3c 7a1c 61bd e4bb 053e 24fe 013e
00000140: 8a63 00be 5c27 003e 470b d1bc 156e d3bc
00000150: 303e d63d 6bea 033e 8238 5f3d d10a 68be
00000160: 6571 853d 60ad 583e a047 55bd 9814 173d
00000170: 1fcd a3bd 85c1 fe3b 94b4 bbbd 99e7 203d
00000180: d898 d33d 5138 2cbd 66a4 ecbd 5a63 063d
00000190: 62be a43b 894c bebd fac0 8d3a 0665 6e3e
000001a0: ceb2 2a3e 5efe 1e3c ef4f 513e 7608 4d3d
000001b0: beb2 c13d c5dc 2c3e c1c6 eebd b381 1abe
000001c0: 0b9a 983c 6d4f e83d c270 69bd 3183 a03d
000001d0: e8cd 90bb ded7 d1bd dc28 313c 0b40 28be
000001e0: 6735 92bd 5284 743e 84a4 78be 0438 1d3d
000001f0: 716a d3bd 705d 3dbd ae92 483e 9aa5 7c3e
00000200: a522 dabc ee4d 3e3e 63e9 db3d 0348 053e
00000210: 751f 18be f24c f53d cec6 f13d bdd4 33bc
00000220: 2131 cebd c074 753d e391 043c f8f3 d23d
00000230: 2f23 833e b24f 853d 5fd6 153e 829f 1dbc
00000240: f59f e83d d8ae c23c 7915 b43d 009d 003e
00000250: 1c22 09be de0c 8d3d 4bb9 1d3e 07be 4a3e
00000260: 89f4 64bd 34cd b23d 813e 1f3d da9f dbbd
00000270: 28a3 583e f9f6 95bc 8400 36be 0b80 9cbd
00000280: f61a fabd 7285 723d ae76 233e 80fe 1dbe
00000290: 7cc9 31be b0f8 59be d882 db3d 0fd9 be3d
000002a0: 7e51 d13d 262b 453e 7620 2b3e 9402 843e
000002b0: 937a bfbd cb90 8cbd 52b8 393e 9a3a d13d
000002c0: 7c4e 24be 1a24 01be 6151 063d 867c 4dbd
000002d0: 3459 363c 3933 413e 5313 3ebe c911 633c
000002e0: 40a5 87be 0e8a e53b f8eb 1fbe 56de cb3d
000002f0: 6f6b b3bd 31dd 073d b108 36be f653 523e
00000300: 0f5c d6bd d713 b63c 71ad 3e3e ea0d f2bd
00000310: 6a2f 333d ba8b 9a3d f9dd 61bd 555a f43c
00000320: e91b c93d 1ed8 853d cba1 0f3e 22a7 503d
00000330: a0b4 30be cdac 193e d51a 3cbd e90d 2b3d
00000340: bab2 87bc a930 603e bb4f 0d3e a597 7c3c
00000350: 07cb 2fbe ae26 2f3e 2991 98bd bd0a f13b
00000360: 7a57 353e bb4b 13be 3416 653d 3ec8 273e
00000370: bb74 573d d304 c1bc 441a 5dbe 8b98 6b3e
00000380: 4799 65bd 06a2 6d3c de01 0e3e bca4 8e3d
00000390: 28f1 8abc 8170 d3bd 0ec4 c43d ef56 d6bd
000003a0: 5ade 8a3c 4376 4cbd a2b3 42be de52 023d
000003b0: afdd 36be cf28 d93d 0653 e53d f10b 793d
000003c0: 4f8d 8b3d 0508 0abd 304c 4a3e 5996 513c
000003d0: 0337 313e 678b 163e 6c24 a4bc 9a0f 6a3e
000003e0: a34a 41bc 8b56 cbbd 5e37 0cbe 0613 f5bc
000003f0: 5b17 d0bd 2f6c 4bbd 7093 893c 8840 0e3e
