app/src/main/ml/model1.tflite (tflite, 11776 bytes, 4 tensors)

sequential_12/dense_12/MatMul f4 [1, 4]
000000 09 6a 4e 3f 58 6f 8d bf 6d d0 83 be 7f 72 88 3f
       0.80630547 -1.1049604 -0.25744954 1.0659941

sequential_12/lstm_12/while/lstm_cell/BiasAdd/ReadVariableOp f4 [16]
000000 67 66 91 3e 7b 14 b4 3d d1 13 a2 bd f0 50 16 3e
       0.2839844 0.08792969 -0.07913936 0.14679313
000010 22 19 a9 3f 99 08 8a 3f 09 97 6c 3f 44 5b 8d 3f
       1.3210795 1.0783874 0.9241796 1.1043477
000020 12 6f 9d 3e 93 61 77 bb 68 d1 3c bd fb 3c 21 3e
       0.30748802 -0.0037747368 -0.046098143 0.15745918
000030 56 74 aa 3e b7 e3 b0 3d de 47 a5 bd df 8f 27 3e
       0.33291882 0.08637183 -0.08070348 0.16363476

sequential_12/lstm_12/while/lstm_cell/MatMul_11 f4 [16, 4]
000000 45 05 ee 3d a3 f7 d7 3d b6 87 bb 3e 9d 0e 4e 3e
       0.11622099 0.1054528 0.36626977 0.20122762
000010 93 dc 1a 3e b8 57 8d 3d aa 49 a6 be 2d ef 1e be
       0.15123205 0.06901497 -0.32478076 -0.15520926
000020 ef 43 a7 3e 38 64 a0 be 36 47 4a 3e 92 3a 50 bd
       0.32669017 -0.3132646 0.19753727 -0.050837107
000030 f5 1d f0 3e 3b 86 28 be 85 21 96 3e 21 5b a0 bc
       0.46897855 -0.16457455 0.29322448 -0.019574704
000040 f0 26 3b be 8f 08 18 bf 3c 3c c1 3e bc 24 18 be
       -0.18276572 -0.5938806 0.37741268 -0.14857763
000050 c6 77 52 3d 37 42 7b 3b 9e e6 4f 3e c6 0c 86 be
       0.051383756 0.0038339028 0.20302817 -0.2618162
000060 77 f9 4c 3e 57 75 d1 bc 4e f9 53 be 35 2e 10 bf
       0.20017038 -0.025568647 -0.20700571 -0.56320506
000070 f5 26 c5 bd f7 7a e6 be 09 4d a5 bd 85 5f b4 3d
       -0.09626571 -0.4501569 -0.08071334 0.088072814
000080 57 41 41 3e 83 61 32 be b5 1c 0c 3f ad 25 16 3f
       0.18872581 -0.1742001 0.54731303 0.5865124
000090 ed 07 fa 3d f2 75 9b 3e 21 d8 93 be 3f 36 d4 3e
       0.12208543 0.30363423 -0.2887583 0.41447636
0000a0 7e fd d2 3d c5 30 e0 bd 8a f6 59 3e aa c8 70 bc
       0.10302256 -0.10946802 0.21285453 -0.01469628
0000b0 1a 73 51 bc f0 e4 2a 3e 38 bf d0 3c c1 82 93 be
       -0.01278379 0.16688895 0.025481805 -0.28810695
0000c0 43 ed 01 3f b2 c8 b0 3e 65 64 07 3f bd 4e b3 bc
       0.5075266 0.34528118 0.52887565 -0.021888131
0000d0 47 47 9e be e5 58 b7 3e 78 a2 69 3e c5 10 06 3e
       -0.30913755 0.3581001 0.22815883 0.13092335
0000e0 9b 5c b5 bd 44 cc a4 bd 17 b0 65 be a3 cb db 3d
       -0.08855554 -0.08046773 -0.22430454 0.107322
0000f0 a1 60 06 3f 57 e6 a2 be ba 5d 4a be 17 3a 3b 3e
       0.52491194 -0.3181636 -0.19762316 0.18283878

sequential_12/lstm_12/while/lstm_cell/MatMul f4 [16, 15]
000000 06 77 42 3f 7d d5 23 bd 67 96 3a 3f 41 d6 8e 3e
       0.75962865 -0.03999852 0.72885746 0.27897838
000010 7a 64 fa 3d 2f 2f a4 3e 95 d0 36 3e 92 e0 c2 3e
       0.12226196 0.32067248 0.17853005 0.3806196
000020 7a fa e0 3e e6 5e d5 bd f2 ed bb be 31 de 88 3c
       0.43941098 -0.10418491 -0.36704975 0.016707512
000030 72 b2 d5 be 68 a3 ce 3d 34 85 c4 be 50 89 52 3e
       -0.41737705 0.10089761 -0.38382876 0.20560193
000040 c9 91 2d bf 22 01 cb 3d df af d8 bd 7d db cf bc
       -0.67800575 0.099123254 -0.1058042 -0.025373215
000050 58 7f 1a bf de e5 f1 3e 62 70 ae 3e f0 df 82 be
       -0.6035056 0.47245687 0.34070116 -0.25561476
000060 11 44 2c bd de 2c ab be 83 aa 94 be c6 ee 61 3e
       -0.0420571 -0.33432668 -0.2903634 0.22063741
000070 80 89 a6 be 4d cc 49 be 5d 3c d5 3e 26 08 0d bd
       -0.3252678 -0.19706841 0.41647616 -0.0344316
000080 bc 98 91 be 85 0c cd be 31 4c bd be eb 30 40 be
       -0.2843684 -0.40048614 -0.36972192 -0.1876866
000090 09 e5 6b be 41 30 79 3e ec d2 ca 3e 28 17 63 be
       -0.23036589 0.24334814 0.39614046 -0.22176802
0000a0 e1 56 ff 3d a3 e6 56 be e2 ba 88 3d 66 a8 1f bc
       0.12467743 -0.20986418 0.0667627 -0.009744739
0000b0 04 a6 b5 be d4 f8 a1 3e b3 bf b9 3e 38 13 9d 3e
       -0.35478222 0.31635153 0.36279067 0.30678725
0000c0 f9 01 94 3e a9 4f f7 3e 3a 3f 9f 3c 7a 14 05 bd
       0.28907755 0.48302963 0.019439328 -0.03249023
0000d0 8a b9 85 3e 25 6b 23 3e 26 4b c5 bc f0 a5 29 be
       0.26118118 0.15958841 -0.024083685 -0.16567206
0000e0 11 16 04 be 7a 2f f3 3e 92 ce d5 be 37 b1 e0 be
       -0.12899043 0.4749716 -0.41759163 -0.43885204
0000f0 20 d4 ac 3d 7d d7 a0 3e 82 5d cb bc a8 08 4b be
       0.08438897 0.31414405 -0.024824861 -0.19827521
000100 53 d7 28 bd cd 35 6e bb 4a a1 87 bd 27 89 09 3f
       -0.041220974 -0.0036347986 -0.0662256 0.537249
000110 b7 42 43 3e 89 f9 90 3d 01 8e aa 3e 2e d9 24 be
       0.19068418 0.07078845 0.33311465 -0.16098472
000120 e5 23 13 3e 73 4a 6a 3e e2 57 a4 3e 27 8a e4 bd
       0.14369161 0.22879963 0.320983 -0.11159163
000130 a2 66 23 bf 12 d4 1b bf f4 c5 bd be 1f 86 21 3e
       -0.6382848 -0.6087047 -0.3706509 0.1577382
000140 28 96 f1 bc 52 3a 08 bc ed 8a 00 3e a7 74 04 be
       -0.029490545 -0.008314686 0.12552996 -0.12935124
000150 ab 43 b3 be f9 b6 de bc 7d d5 da bd 29 a7 86 be
       -0.35012564 -0.027186858 -0.10685251 -0.26299408
000160 5b 4a 86 3e a8 2e 88 3d aa 85 9f be 53 3c 24 3b
       0.26228604 0.06649524 -0.31156665 0.002506037
000170 57 b8 05 3e eb d0 04 bf 5d 88 d3 3d ac fd 9a be
       0.13058601 -0.51881284 0.103287436 -0.3027166
000180 c7 cb 80 3c ac 8c ef be 85 80 90 bd 92 d9 fb be
       0.015722169 -0.46787012 -0.07055763 -0.4918943
000190 cd ac 53 3c 93 17 f3 3d 4e 01 e5 3d 6e 98 1c 3e
       0.012919617 0.11869731 0.111818895 0.15292522
0001a0 df 5a 04 be 49 09 81 bd 5c d4 b6 bd 42 f9 a2 3d
       -0.1292529 -0.06300599 -0.08927223 0.079576984
0001b0 db bb de 3e 93 62 2d be e9 e3 62 be ff a7 5c 3e
       0.43502697 -0.16932134 -0.22157253 0.2154846
0001c0 b7 54 03 3f 9d 86 62 be 79 35 d4 bc fd 67 72 3e
       0.5130114 -0.22121663 -0.025904404 0.23672481
0001d0 c3 30 11 be 00 f0 6f 3e 3f 45 50 be af ab c4 bd
       -0.14178757 0.23431396 -0.20338915 -0.096030585
0001e0 6d 74 0a be 95 4a 14 bd 73 d2 de 3e ae 6a 90 3e
       -0.13520975 -0.03620394 0.43519935 0.2820639
0001f0 c7 b2 3f 3e 2a 22 02 3f 4a 55 41 be e0 1c 89 be
       0.18720542 0.5083338 -0.18880191 -0.26779842
000200 e5 53 d1 bd 4d 26 dc 3d 86 79 7b be 48 2c c9 be
       -0.1022108 0.10749493 -0.24558076 -0.39291596
000210 1f b0 7f be 8b 6a d2 be 9f 3a 4c bd 96 d9 80 bd
       -0.24969529 -0.4109691 -0.049860593 -0.06291501
000220 c9 09 3e bf a3 6c dc be 04 7d c7 3d 51 14 b1 bd
       -0.7423368 -0.43051633 0.09740642 -0.08646453
000230 53 2c 14 bf 67 2f 50 be d0 cd 7c be 85 68 e0 3d
       -0.57880133 -0.20330583 -0.24687886 0.109574355
000240 39 29 55 be 53 25 74 3e 34 3e e0 3e 0e 0d 82 bd
       -0.20816506 0.23842363 0.43797457 -0.06350146
000250 a8 a3 1b be 4f 0e a1 3e b7 6f 30 be d9 a4 4c 3e
       -0.15199149 0.3145623 -0.17230116 0.1998476
000260 ba de 7e 3e 8b 4c 9e 3c 1a a6 5c 3e 2b 7f 9e 3c
       0.24889651 0.019323608 0.21547738 0.019347748
000270 4c 15 69 3e 15 0c 04 3e b6 0f be 3d b7 76 b3 bd
       0.2276203 0.12895234 0.092803404 -0.087628774
000280 14 47 7d bd 05 61 f1 be 9f b2 99 3e 49 f0 07 be
       -0.061835364 -0.47144333 0.3001909 -0.13275255
000290 e1 11 a2 3e 69 a3 85 3e 88 3a 4e be 4e 77 04 3e
       0.31654266 0.26101235 -0.20139515 0.12936136
0002a0 7b 9b df 3e d0 35 86 3c 36 ef b9 3e c9 49 5f bd
       0.4367331 0.016383082 0.36315316 -0.054513726
0002b0 8f a6 fd 3d db c3 8e be 0c b8 db be d6 3f a2 3e
       0.12385284 -0.278838 -0.42913854 0.31689328
0002c0 92 21 f9 3d e3 d0 e3 3e 63 66 cc be da b9 9b 3c
       0.12164606 0.44495305 -0.39921865 0.01900952
0002d0 c9 b6 89 be 97 fa ab 3e 2a 31 4d 3f bd df eb 3e
       -0.26897267 0.33589622 0.80153143 0.46069136
0002e0 e5 c9 17 3d 37 03 07 3f 7a 6d 6a 3e 5e c7 bd 3c
       0.037057776 0.5273928 0.22893324 0.023166355
0002f0 e8 1a 69 be 14 55 47 be 3a 7a 5d 3e b9 5b 8b 3d
       -0.2276417 -0.19466048 0.21628657 0.06804604
000300 a6 08 92 bd 3b ae e5 be a4 35 71 be 4f 56 4f 3e
       -0.07130556 -0.4485949 -0.23555619 0.20247768
000310 51 c5 a4 bc b0 6f 81 be f8 4f 0a 3f d6 72 08 be
       -0.020113619 -0.25280523 0.5402827 -0.13325056
000320 bd 6d 45 be 40 03 8f 3e 09 c5 43 3e 95 41 37 3e
       -0.19280143 0.27932167 0.19118132 0.17896111
000330 de 92 dd 3d f2 08 01 be 80 d1 96 3c ce a6 81 3e
       0.10819028 -0.12601069 0.018410444 0.25322574
000340 92 20 3e 3d 43 b5 2a be 06 05 83 3c b0 a7 2f bd
       0.04641778 -0.16670708 0.015993606 -0.04288453
000350 33 eb 1b be 4c dc 5e be 68 15 c9 be 88 0e 80 3c
       -0.1522644 -0.21763724 -0.39274144 0.015631929
000360 97 54 f7 bc 37 8e dd be 31 12 5f 3e ea db fb 3c
       -0.030191703 -0.43272564 0.21784283 0.030744512
000370 f7 d9 f7 be c4 f3 e6 be 05 ab 47 be 9a cd a7 be
       -0.4840848 -0.45107853 -0.19498833 -0.3277405
000380 11 49 27 3e 74 1a ec 3e 3e 7a 32 be 35 a2 6b bd
       0.16336466 0.46113932 -0.17429444 -0.05752774
000390 db cf 01 3f 05 73 12 3f 3e 93 48 3c 74 2e ca 3e
       0.5070779 0.57206756 0.0122421365 0.39488566
0003a0 b3 3b 99 3e 09 f7 18 be 94 23 9e 3e fc 4d f7 3d
       0.2992836 -0.14937986 0.3088652 0.12075421
0003b0 8a b6 d2 be bb c2 ce be 08 ba db 3d 41 47 93 3c
       -0.4115489 -0.40382943 0.10728842 0.017978312
